offline/model/review/BERT_RNN.pth (torch, 468069 bytes, 4 tensors)

i2h.weight f4 [128, 896]
000000 63 e8 ed bc 72 44 06 3c 79 5d 6a bc 3f 47 8d bc
       -0.029041475 0.00819503 -0.014304512 -0.017245887
000010 02 7f 7f 3c 6d c8 24 bc 21 73 b6 3c a6 0f c7 3a
       0.015594246 -0.010057551 0.022271695 0.0015187159
000020 ba 66 d9 3b c0 d3 eb 3c 15 99 a2 3c 46 8d a2 3c
       0.0066345604 0.028787494 0.019848386 0.019842755
000030 00 6f d6 bc c0 82 e2 3c e8 9b 84 bc 41 8d 05 3d
       -0.026175976 0.027650237 -0.016187623 0.032605413
000040 a4 91 eb 3c 13 8e de bc 24 34 bb 3c 24 b1 c9 bc
       0.02875597 -0.027167356 0.022852011 -0.0246206
000050 0c 7d 12 bd ad dc 95 3b 09 88 e8 3c 2b 29 a1 bc
       -0.035763785 0.0045734257 0.02838518 -0.01967295
000060 36 ad f7 3a d6 79 a9 3c f8 69 e8 3b b5 35 03 bd
       0.0018896225 0.020687979 0.0070927106 -0.03203364
000070 58 3d cd bc 4d d2 d2 3b 83 61 4a bc 36 e8 db 3b
       -0.025053665 0.006433761 -0.01235235 0.0067110313
000080 ae ea fb bc 3f 0c 16 bc 9a 78 a1 ba 3c cd 05 bc
       -0.030751552 -0.009158193 -0.0012319267 -0.0081666075
000090 42 2b 28 b8 c0 4d 43 3b 8a 98 da 3c f8 61 99 3c
       -4.009461e-05 0.0029800981 0.026684064 0.018723473
0000a0 f9 e6 b1 3c 3f b5 ff 3c 5b 4a a7 bc 46 16 f7 bc
       0.021716582 0.031214355 -0.020421198 -0.030161988
0000b0 93 d0 76 3b f2 10 8d 3b 06 00 ba bc 6e 8c 86 3c
       0.003766094 0.0043049986 -0.02270509 0.016424384
0000c0 7a 5e 98 bc d2 98 c2 3c 02 d8 e8 3c 17 c8 0e 3d
       -0.018599737 0.023754511 0.028423313 0.03485879
0000d0 9a b7 91 bc 0e d6 0f 3c 27 8f cb 3c be 60 d4 3c
       -0.017787743 0.008779062 0.024848534 0.025925037
0000e0 ab a9 de bc 68 ca 7c bc 82 e6 6e 3c fe e8 a8 3b
       -0.027180513 -0.015429117 0.0145813245 0.005154728
0000f0 0b b5 da 3c 8b 55 b5 bc dc e6 9f bc 98 ac 79 bb
       0.026697656 -0.022135517 -0.019519262 -0.0038097259
000100 0d a6 0d 3d bd 8a 1f 3b 05 d5 d8 3c f0 48 b8 3c
       0.034582186 0.002434417 0.026468763 0.022495717
000110 2c 0e 20 bd 36 50 86 bc 52 f3 ff 3c 94 35 e3 bc
       -0.039076015 -0.01639567 0.031243954 -0.027735509
000120 f5 88 23 bc cc e4 03 3d ea 40 0c 3d c3 2a 52 3c
       -0.009981384 0.03220062 0.034241594 0.012827578
000130 07 5c 2f bc 32 08 53 bc 5e 71 5a bc b1 5e 03 bd
       -0.010703093 -0.012880372 -0.013332693 -0.032072727
000140 fe 71 dd bb 4e 35 04 3c 9f 18 0f bd 61 c6 1a 3c
       -0.0067579737 0.008069349 -0.03493559 0.009446711
000150 bf a3 c5 bc 6a 88 e4 3a 4d 68 dd 3c dc 49 d6 3c
       -0.024125932 0.0017435674 0.027027274 0.026158266
000160 46 71 22 3b d4 a1 0a 3d a3 2d bb 3c e0 aa 90 3c
       0.0024786755 0.033845738 0.02284891 0.017659605
000170 19 61 c5 3c 66 74 d1 3c ff 36 a4 3c e7 50 0a bd
       0.024094151 0.025568198 0.020045755 -0.03376856
000180 f2 70 bf bc ff d5 75 3c fe 57 32 bc 99 f0 02 3d
       -0.023369286 0.015004634 -0.010885237 0.031967733
000190 c9 00 36 bb df 50 2c bc 3d fb 00 3d 94 f0 dc 3c
       -0.0027771464 -0.010517328 0.0314896 0.026970185
0001a0 1c b7 f6 bc 68 d8 41 bc d5 99 ce 3c 5e c3 cf bc
       -0.03011661 -0.01183138 0.025219837 -0.025361713
0001b0 56 c4 7a 3c 7e 58 78 3c 02 72 68 bc bc b9 9d bc
       0.015305599 0.015157817 -0.014187338 -0.019253604
0001c0 36 be 3f bc 44 3b eb 3c 13 cf ab 3b 47 ab b0 3c
       -0.011703065 0.028714783 0.005243191 0.021566046
0001d0 cc 12 6f 3b 81 8f 31 bc 7d 55 89 bc d1 f5 86 3b
       0.003647971 -0.010837437 -0.016764397 0.004118659
0001e0 ff 76 16 ba 81 0f 3a bc 37 25 23 3c e0 2f d3 bc
       -0.00057397777 -0.0113562355 0.009957603 -0.025779665
0001f0 41 04 ce 3c 62 2f 94 3c a3 78 57 3c 81 5f a5 bc
       0.025148513 0.018089 0.013151321 -0.020187141
000200 17 60 f9 bb e1 d9 c1 3c 2d d7 dc 3c 1e 39 79 3c
       -0.0076103318 0.023663463 0.026958073 0.015211372
000210 10 43 b6 bc 7f 56 23 3c 8c 50 65 3c ee 40 a4 b8
       -0.022248775 0.009969353 0.013996255 -7.8322235e-05
000220 f0 a4 cb bc f0 80 73 3c d9 a2 67 bc 29 0f b7 3c
       -0.024858922 0.014862284 -0.014137947 0.022346096
000230 7a c1 11 3d b6 a4 8d 3b dd fd b0 3c 99 0a c3 3c
       0.035584904 0.0043226136 0.021605426 0.023808764
000240 fd 91 da 3c 33 06 21 bb 74 0a c9 3c 65 10 be bc
       0.02668094 -0.0024570345 0.024541117 -0.023201177
000250 55 8a a4 bb b8 67 1e 3c 1d cb 35 bc db b3 83 3c
       -0.0050213733 0.009668283 -0.011095789 0.016076973
000260 9d 88 f0 3c dd 57 af 3c 81 ab b5 bc 46 10 39 3c
       0.029362017 0.021404201 -0.022176506 0.011295384
000270 64 9e 31 bc d9 86 43 bb 74 e9 b8 3c 86 ee f9 3c
       -0.010840986 -0.0029835014 0.022572257 0.030509245
000280 8e 74 ef 3c b1 08 d1 bc 5c c5 83 bc 52 53 23 bc
       0.029230382 -0.02551684 -0.01608532 -0.009968596
000290 d5 64 e9 bc 96 96 01 3d 72 8c c2 3c 56 76 44 3c
       -0.028490463 0.03163775 0.02374861 0.011991104
0002a0 04 75 29 bb 93 3e f9 bc 8d 34 af bc 18 1e b9 3b
       -0.00258571 -0.030425346 -0.021387363 0.0056493394
0002b0 35 08 c9 3c 57 8c 0b bd 6a 24 ca bb f5 d9 b7 3c
       0.024540046 -0.034069385 -0.0061688917 0.022442797
0002c0 6e f9 e1 ba 6a 5b 5e bc fa d3 84 bc da 47 b4 bc
       -0.0017240474 -0.0135715995 -0.01621436 -0.022006918
0002d0 5a 12 d3 3c 5c 70 91 3c db 1d f5 3c 58 30 c7 3c
       0.025765587 0.017753772 0.029921463 0.024315044
0002e0 7e 3a 00 bb a0 d4 7d bc af 47 0a bc 1b a7 95 3c
       -0.0019566114 -0.015492588 -0.008439942 0.018268159
0002f0 76 6f eb 3c 7f 3f 49 bc 82 95 0a 3d 16 6a a1 3c
       0.028739672 -0.012283205 0.033833988 0.019703906
000300 64 ad 0b bd 21 fb a9 bc 99 53 28 3c 95 37 11 3d
       -0.034100905 -0.02074963 0.0102738375 0.035453398
000310 3c 75 5f bb 03 ac bf 3c 7f a2 f9 bc b5 c8 cb bc
       -0.0034096977 0.023397451 -0.030472992 -0.024875978
000320 ac db 62 bb 3c 4d 7e 3c 5d 31 d7 bc e0 93 77 bc
       -0.0034615798 0.015521344 -0.026268655 -0.01511094
000330 41 c3 f9 3c c7 fd 22 bc a0 3c 7d bc fb c4 76 3b
       0.030488612 -0.009948201 -0.015456349 0.003765403
000340 9c 5e 47 bc 77 ad bb bc c1 22 26 3c 50 16 0f 3c
       -0.012168553 -0.022909863 0.010140122 0.008733347
000350 cc bb 04 bd 56 3d b8 3c bf f9 7d bc 15 f7 a3 3b
       -0.03240566 0.022490185 -0.015501439 0.0050038197
000360 c9 b4 a3 3c 6d ba 11 bd 7b ac ca 3b df 00 3c 3c
       0.019983666 -0.03557818 0.006185112 0.011474817
000370 66 9d 8f 3c 92 9c a1 3c bd 53 70 3c 5a f3 c2 bc
       0.017531108 0.019727979 0.014668402 -0.02379768
000380 bc ae b7 bb 24 76 a2 3c b3 8e c6 3c 9e 17 9e bc
       -0.0056055468 0.019831724 0.024237966 -0.01929837
000390 dc 98 07 bd 2d f3 63 bc 57 22 1e bc 30 a2 75 3c
       -0.033104762 -0.013912958 -0.009651742 0.014992282
0003a0 97 5b 1d bc 7d 07 f5 3c bd 6f 8b 3b dd 31 0a 3c
       -0.009604356 0.029910797 0.0042552636 0.00843474
0003b0 87 38 aa bc 55 49 c8 bc 6d ef cf 3c fc 1f a4 bc
       -0.020778907 -0.02444903 0.025382722 -0.020034783
0003c0 b0 df 55 ba 41 4a 29 bc d3 32 a4 ba ee ed a9 bc
       -0.0008158637 -0.010332645 -0.0012527354 -0.020743337
0003d0 df 1d dc 3c 92 f2 7b bc 49 bb a8 3c ab a0 95 bc
       0.026869712 -0.0153776575 0.020597117 -0.018265089
0003e0 db ae 13 bb 12 39 aa 3b 84 3c 83 3c b1 9d c3 bc
       -0.0022534642 0.0051947916 0.016020067 -0.023878904
0003f0 98 6f 02 bc 57 cb 81 3b 03 7c 11 bc 18 7c b5 3c
       -0.007961176 0.0039610076 -0.008879664 0.0221539

i2h.bias f4 [128]
000000 f6 7e 7d bc cd 95 ea ba d1 20 f0 3c 39 fb 75 bb
       -0.015472164 -0.0017897427 0.029312523 -0.0037533774
000010 d1 6d ce 3c 77 45 5f 3c 9f c0 a1 bb 0b d8 95 3c
       0.025198849 0.013627402 -0.0049362923 0.018291494
000020 7a d7 a8 3c 38 a6 cd bc 83 55 aa 3c 68 7d 04 bd
       0.02061056 -0.025103673 0.020792728 -0.03234616
000030 45 a3 ca 3c 53 74 2a bb 60 f8 ee 3c 6a bb 31 bb
       0.024736056 -0.0026009276 0.029171169 -0.0027119764
000040 ff 90 e0 bc 6f c5 73 bb 72 09 c3 bc 61 dc 1f bc
       -0.02741289 -0.0037196537 -0.023808215 -0.009757132
000050 6a e0 fc bb d1 97 b5 39 5d 3c d1 ba 9d 1b 9a bc
       -0.007717182 0.00034636122 -0.0015963424 -0.018811995
000060 5c 6f 87 bc 12 8e 8a 3c 29 d4 ad bc 4d 7f 03 bc
       -0.016532592 0.016913448 -0.02121933 -0.008025956
000070 95 97 a9 3a 48 58 1e bc 62 93 dd bc b7 d5 bb 3c
       0.0012938852 -0.009664603 -0.027047817 0.022929056
000080 df 96 a7 3c 8f 18 88 bc 9c d6 64 bb cf cb 08 bd
       0.020457683 -0.016613273 -0.0034917956 -0.033397492
000090 79 77 de 3c 0b 41 43 bc d6 7d 84 3c 9f 29 38 bc
       0.027156578 -0.011917363 0.016173285 -0.011240392
0000a0 b0 20 d4 bc f9 b2 7a 3c 4e f6 82 3c 90 5c f6 bc
       -0.025894493 0.0153014595 0.015986588 -0.030073434
0000b0 ab b1 ce bc 31 40 92 bc 95 15 03 3c 60 79 41 3c
       -0.025231203 -0.017852874 0.008000751 0.011808723
0000c0 72 50 a6 bc f3 56 d6 bb af 21 28 3b 67 83 e0 bb
       -0.020302031 -0.006541127 0.0025654843 -0.006851602
0000d0 df 1b d3 bc 61 ed 31 3c d4 41 4e 3c ac b0 e5 3c
       -0.025770126 0.010859818 0.012588937 0.028038345
0000e0 83 7e 85 bc fa 98 30 bc bf 9d 31 bc fd 7b 09 3a
       -0.016295677 -0.01077866 -0.010840832 0.0005244611
0000f0 f3 32 62 3c 99 0a 97 bc 58 cd ad 3b 38 b3 05 bc
       0.013806093 -0.01843767 0.00530402 -0.008160405
000100 5c 8a 5b bc 4e e9 a9 3c 1c d0 17 3c f8 cc 67 3c
       -0.013399687 0.020741131 0.009265926 0.014147989
000110 76 c1 9f bb c4 8d 43 bb a7 1f f8 3c 2b 1f 89 bc
       -0.0048753573 -0.0029839138 0.03028853 -0.016738495
000120 6a b3 6b 3c b1 6d 44 ba 2d 74 32 3c 0a 57 f1 3c
       0.014386037 -0.0007493152 0.010891956 0.029460449
000130 78 16 97 3c 98 32 1e bb 46 ad fb 3c 6a 00 b9 3c
       0.018443331 -0.0024139043 0.030722272 0.022583205
000140 d8 be d7 bb 0d 2c df 3c a0 8a 9a bc f3 10 55 3c
       -0.0065840296 0.027242685 -0.01886493 0.013004529
000150 84 24 3f bb a6 1c a0 3c 66 5d 2b 3a 7c 44 98 bc
       -0.0029166052 0.01954491 0.000653705 -0.018587343
000160 91 ab 33 bb b2 2d c1 3c 22 76 59 3c e7 0b f9 3c
       -0.0027415494 0.02358136 0.013272794 0.030401183
000170 b7 8d 04 bb ac 11 90 bc dc 66 c2 3c 31 4e c4 bc
       -0.002022607 -0.017586552 0.023730688 -0.023963066
000180 4f 4a 8b bb bb 63 aa bc 49 bf f8 bb 9c 17 e4 bc
       -0.0042508016 -0.020799508 -0.0075911623 -0.02784329
000190 82 25 dc ba 44 3d 47 bc 8a 56 cf 3b 44 a2 cb 3c
       -0.0016795846 -0.012160603 0.006327455 0.024857648
0001a0 09 79 d5 ba 63 50 f8 bc b4 c0 ea 3b 2d 3a 96 3c
       -0.0016286682 -0.030311769 0.0071640853 0.018338287
0001b0 d4 af 87 3c 66 1a 01 bc 09 cb 00 bd 17 00 52 3c
       0.016563334 -0.007879829 -0.03144363 0.012817404
0001c0 84 5a 89 bc 9c f3 59 3c 45 b3 60 3b 12 1e 12 3b
       -0.016766794 0.01330271 0.003428654 0.0022295755
0001d0 6b 86 a7 3b 4c 20 1b 3c ee 86 a2 3c 0e f4 15 3c
       0.0051124594 0.009468149 0.01983973 0.009152425
0001e0 e5 e9 4a bc f4 e2 3e 3c e0 25 4a 3b 81 53 89 bc
       -0.012384866 0.0116507895 0.003084533 -0.01676345
0001f0 28 bc 87 bc 9d 8d b6 bc f1 77 d5 bc 97 00 54 3b
       -0.016569212 -0.022284323 -0.02605817 0.0032348984

i2o.weight f4 [2, 896]
000000 e8 55 7b bc a5 88 56 bd c1 84 04 bd 48 04 d8 3d
       -0.015340306 -0.052376408 -0.032353166 0.105476916
000010 8f 86 01 bc 8a 17 16 be 60 f3 6e 3d 38 5d 96 bc
       -0.007905616 -0.14657417 0.05833757 -0.018354997
000020 6c 92 98 bd 67 ac 4d bb 01 00 23 3d 8b 62 b3 3d
       -0.07449803 -0.0031383277 0.039794926 0.0875903
000030 53 75 8a 3d ac 0e ac 3d 1b b3 34 3d bc a8 19 3e
       0.06760659 0.08401236 0.04411612 0.15005773
000040 8b 53 4e 3c df a5 be 3c 41 84 41 3d 11 de b4 bd
       0.01259316 0.023272453 0.047245268 -0.08831418
000050 67 77 0e 3e e4 8a 04 bd c2 8f 00 be f2 d5 3e 3d
       0.13912736 -0.03235902 -0.12554839 0.046590753
000060 36 6b 37 3d 26 a6 14 be c3 34 65 bd 2e d2 21 3d
       0.04477998 -0.14516506 -0.05595852 0.039507084
000070 e9 35 af 3b 7e 51 07 be 93 52 3e 3d 05 25 a7 bd
       0.0053470028 -0.1321468 0.046465468 -0.08161358
000080 43 c3 b7 3d 3f eb 10 bd 0b e6 f9 3c 8a d2 df bc
       0.0897279 -0.0353806 0.0305052 -0.027322073
000090 5a 3a 11 3c 02 f7 41 3d 08 d5 58 bd 9c ec 22 bd
       0.00886401 0.047354706 -0.052937537 -0.03977643
0000a0 66 31 b9 3c 32 bf c4 bd a2 bb 29 bd 1d da db 3d
       0.022606563 -0.0960678 -0.041438706 0.10734961
0000b0 35 1a 13 3d 3f f9 01 bd fe b8 f0 bb ac 61 7b bb
       0.035913665 -0.03173184 -0.0073462715 -0.0038357778
0000c0 19 a2 a0 bd c9 be 14 3e 61 63 34 bb 5b fb f0 3d
       -0.07843418 0.14525904 -0.0027525055 0.11766692
0000d0 35 f5 80 3d ac 74 4b 3e 45 8f 0f 3d dc 53 88 bd
       0.062967695 0.19868726 0.03504874 -0.0665662
0000e0 7f 86 dd 3c c8 6b 8b bd 6c 07 f0 bb 37 ee 2f 3e
       0.027041672 -0.06807667 -0.0073251035 0.17180716
0000f0 f9 10 18 bd 81 20 1c 3c d4 7b 0f bd a0 4e f5 3c
       -0.03712556 0.009529234 -0.0350302 0.029944718
000100 b6 6b c6 3c ee a8 d2 bd 8c db 09 be 78 ce 9f 3d
       0.024221282 -0.10286127 -0.13462657 0.07803053
000110 1a 4f 24 bd a0 65 5b 3d 71 22 00 3d 13 fd bb 3d
       -0.0401145 0.053563714 0.031282846 0.091791295
000120 7b 02 42 be 39 f1 3d bd 9d 05 3f 3b 78 a2 0e bc
       -0.18946259 -0.046372626 0.0029147633 -0.008705728
000130 88 78 9d 3c 57 23 8a bd e2 3b 12 bd cc c7 4c 3d
       0.019222513 -0.06745022 -0.03570164 0.04999523
000140 c0 d2 36 3d 62 c1 71 3d 7b eb cd bc 87 9f a6 bd
       0.04463458 0.059022315 -0.0251367 -0.08135896
000150 b7 ce 08 bc e0 f7 ad bd 59 5f da 3c ee ec a4 3b
       -0.008350066 -0.08494544 0.026656793 0.005033127
000160 3a 60 c3 bd 98 88 3b 3c 9a d8 b9 3d 62 9f 80 3d
       -0.09539838 0.011446141 0.090745166 0.062804
000170 4c 58 36 3d f4 3f 2b be 5c 82 f4 3c bf 20 f5 bc
       0.0445178 -0.16723615 0.029847316 -0.029922841
000180 90 24 17 bd ed c9 20 bb 3a ec 05 3d 75 77 33 3c
       -0.036900103 -0.002453442 0.032695986 0.010953774
000190 50 87 e0 3d 1e b1 2b bc c8 2e cc 3d f7 3e 8f 3c
       0.10963309 -0.01047924 0.0996986 0.017486079
0001a0 cd 51 98 bc 8f fe 71 bd 96 61 6e bd eb 0c 6c 3a
       -0.018593693 -0.059080657 -0.058198534 0.00090046105
0001b0 0f 59 db 3d f4 89 c5 3d eb e6 f6 bd f8 2f ba 3d
       0.10710346 0.09645453 -0.12055763 0.090911806
0001c0 33 b7 23 3d 87 00 1c 3e 87 0a 3a 3d 72 d9 92 bd
       0.039969634 0.15234576 0.045420196 -0.07170381
0001d0 77 e3 04 3e 6b cf 94 3c ac 5c f3 3d 2b d1 1b be
       0.12977396 0.01816531 0.1188291 -0.1521651
0001e0 f5 dc f6 bd 20 ab 18 bd d1 0d 2b 3d b0 05 0e 3d
       -0.12053863 -0.037272573 0.041761223 0.034673393
0001f0 96 f5 e7 3c 30 90 a4 3d df f4 2c 3d 83 c7 71 bd
       0.028315347 0.08035314 0.042225715 -0.05902816
000200 a7 e0 30 3d 3f 62 87 bc 92 a7 4a 3c 75 ad 63 3d
       0.043182995 -0.01652634 0.012369053 0.055585343
000210 d1 cb 85 bd ec 92 92 3d 41 7f 42 3d 9d c8 8c bd
       -0.065330155 0.071569294 0.04748464 -0.068742014
000220 c7 9c 6e 3d 1e 5d 19 bb 98 9a 84 3d 18 ac c2 bd
       0.058254983 -0.002340145 0.06474799 -0.095054805
000230 92 9f 90 bd f1 4f 83 3c 35 22 cb bd 8e bb cc bd
       -0.070616856 0.01602933 -0.09918634 -0.09996711
000240 5a 68 99 3c 3a d9 1c bc a8 65 60 3c 14 ff aa bc
       0.018726517 -0.009573275 0.013696112 -0.020873584
000250 a5 9b 91 3d b4 71 49 bd d5 ed 7e bd db 1c 88 bc
       0.07109765 -0.0491807 -0.062238533 -0.016615322
000260 d3 22 55 3d 8c db 7e 3d 35 4f 0e bd ce 4a 75 3a
       0.052035164 0.062221095 -0.034743506 0.0009357155
000270 ca bc 54 3d 4e 2d a6 3d 90 02 cc 3d df 20 76 bc
       0.051937856 0.0811411 0.09961426 -0.0150224855
000280 2e 24 10 3d f3 ea 05 3e f7 ef 85 bd de 25 ab bc
       0.035190754 0.13077907 -0.0653991 -0.02089208
000290 a2 ef 83 3d 1a c5 1a 3d 53 a6 d8 3b ad 31 13 bd
       0.06442191 0.037785627 0.0066116243 -0.035936046
0002a0 20 ec 1b 3d fb cd 4a 3c 83 d6 b1 bd 22 23 66 bd
       0.038066983 0.012378211 -0.08683493 -0.05618585
0002b0 18 21 58 3d 14 0f a9 3d bb 0c e5 bc 98 74 48 be
       0.052765936 0.08254829 -0.027960172 -0.19575727
0002c0 e8 a5 83 3c 8d 99 3e bd 8f ff f2 bb 58 48 c5 3c
       0.016070321 -0.046533156 -0.007415719 0.024082348
0002d0 6e 37 7e 3d 92 50 92 bd 39 3a e5 bc bf 0f 4a bd
       0.06206458 -0.07144274 -0.027981864 -0.049331423
0002e0 eb fb 61 3c bb 98 3b bc 09 b9 04 3b 8e 12 ef bd
       0.013792972 -0.011449988 0.002025189 -0.11673461
0002f0 f9 ec 5b bd 19 5a ca 3c f3 5e 63 bb 40 7a 09 3c
       -0.05369279 0.024701165 -0.0034694045 0.008390963
000300 37 3f cf bd ad 24 af 3d ae 4f c8 3c 8b 70 63 bd
       -0.10119479 0.08551917 0.024452057 -0.05552725
000310 47 63 19 3d 91 73 82 3d 2c de 48 3d 64 a0 43 3d
       0.037448194 0.06369699 0.049040005 0.047760382
000320 bc 07 ec bd 37 10 c6 3b 07 9d 64 bd 32 c9 00 3d
       -0.11524913 0.0060444134 -0.055813815 0.031441875
000330 81 be 7e bc 36 50 54 3d 4e 36 15 3e 63 7e e5 3c
       -0.015548349 0.051834308 0.14571497 0.028014367
000340 3a 68 b2 3c d0 21 47 3c ef 80 5f be 1a c8 d1 3c
       0.021778215 0.012154058 -0.21826528 0.025608111
000350 b0 6c 9d bb 61 7a 59 bc 8e 9b 95 bd 0e 43 13 3d
       -0.0048042163 -0.013273806 -0.0730506 0.03595262
000360 2c 9a 00 be 60 8d bb 3d 36 db 35 3c f0 36 fd bc
       -0.12558812 0.091578245 0.011099627 -0.030909985
000370 84 02 3a 3e 45 ce 09 3d ce 25 87 bd cb 33 7c 3d
       0.18165022 0.03364398 -0.065990075 0.06157283
000380 4d cb 22 bd a2 7f 1b bd 76 6f b1 bd b3 97 b3 bd
       -0.039744664 -0.037963517 -0.086638376 -0.08769169
000390 ac 82 4c 3d 71 98 89 3d ed 2d f9 bd 6d a7 04 bd
       0.049929306 0.06718529 -0.12166963 -0.032386232
0003a0 12 db ac 3d cb 3f f3 3d 2c 24 c7 bc 28 dd 07 be
       0.08440222 0.11877402 -0.02430924 -0.13267958
0003b0 71 c7 16 bd d9 97 66 3d 68 07 2c bc fc 2f 6a bd
       -0.036811296 0.056297157 -0.010499813 -0.057174668
0003c0 7d 39 85 3c 92 ed 14 3e 33 9c 1d bb fc 8d 6f bd
       0.016262764 0.14543751 -0.00240494 -0.058485016
0003d0 0a e6 ea bb bd af d4 bb 6f 2d 08 bd 69 96 1e bd
       -0.007168536 -0.006490676 -0.033246454 -0.03871766
0003e0 7a 13 41 3c 21 50 6c 3d 3a 8a 34 bd 85 22 5c 3b
       0.011784429 0.057693604 -0.044077136 0.0033589911
0003f0 45 86 1b 3e 33 71 64 bd 4e 48 0f 3d a9 8c 78 bc
       0.15187939 -0.055772018 0.034981064 -0.015170255

i2o.bias f4 [2]
000000 b2 b5 42 3c 9c c8 8f bc
       0.01188414 -0.017551713
