offline/review_model/BERT_RNN.pth (torch, 468069 bytes, 4 tensors)

i2h.weight f4 [128, 896]
000000 1f d3 54 bc 14 7c 94 3c d1 8a c1 3c 84 ba d7 bc
       -0.012989788 0.018125571 0.023625763 -0.026334055
000010 ba e6 b1 3c 95 67 fb bc 64 f7 b5 3b 85 19 49 3b
       0.021716464 -0.03068904 0.005553173 0.0030685377
000020 22 d0 a8 bc ad e4 17 bc c2 96 50 3c f7 9c 94 bc
       -0.020607058 -0.009270829 0.012731256 -0.018141253
000030 07 ae a0 ba 83 ba 4f 3b 96 f6 82 3c e2 6b 1f bc
       -0.0012258895 0.0031696863 0.015986722 -0.009730311
000040 53 92 a5 3c df 56 f8 3c 38 69 99 bc c9 bf 4f bc
       0.020211374 0.03031486 -0.01872693 -0.0126800025
000050 e1 cc 37 3c 80 73 df bc 8b 29 f6 3b 3a 2d c8 3b
       0.0112182805 -0.027276754 0.0075122765 0.006108907
000060 d8 35 72 3c 9d f3 8c 3b e4 62 e8 bc 02 fd 00 3d
       0.014783345 0.004301502 -0.028367467 0.031491287
000070 8e 97 b6 bc 33 63 82 3c c6 24 d4 39 77 3a b1 bc
       -0.022289064 0.015916442 0.0004046319 -0.021634324
000080 40 83 a5 bb 43 72 05 3d 28 73 e9 3c 4b 07 2a ba
       -0.0050510466 0.03257967 0.028497294 -0.0006486072
000090 05 fb 89 3b e0 99 1d bc d1 a9 8a bc b0 90 9d 3c
       0.004210832 -0.009619206 -0.016926678 0.019234031
0000a0 18 4d df 3c 1e 6c bb 3c 27 27 15 bc 8f 56 35 3c
       0.02725844 0.022878703 -0.009103573 0.011068
0000b0 9e 3f 70 b9 fd ae 82 ba 1c bf 03 bd c3 0f ba bc
       -0.00022911883 -0.0009970363 -0.032164678 -0.022712594
0000c0 7c 63 a6 3b d2 21 be bb d3 ce a3 3c 85 db 86 3c
       0.0050777774 -0.0058023715 0.019996082 0.016462097
0000d0 eb ca 98 3c 3c 18 5c bc ed 4f f4 bb 54 4d 9d 3b
       0.018651446 -0.013433512 -0.007455817 0.004800478
0000e0 1f f6 35 3c ab c3 08 3b 09 86 57 3b ca 88 01 3d
       0.011106043 0.002086858 0.0032886288 0.031624593
0000f0 09 31 05 3b 95 3d e7 3c c8 77 91 bc 99 9d 07 3d
       0.0020323417 0.028227607 -0.017757311 0.03310928
000100 99 67 9c 3c 5d ab bb bc 12 f0 bd ba fc cf 98 bc
       0.019092368 -0.02290886 -0.0014491102 -0.018653862
000110 a6 f8 a4 bc b8 34 c6 3a aa 4d 8a bc 75 fc 00 3d
       -0.020138096 0.0015121913 -0.016882736 0.03149076
000120 5c 8b bd bc d6 c7 07 3d fb af dc bc 04 43 f2 3c
       -0.02313774 0.033149563 -0.026939383 0.029572971
000130 2e 05 f2 bc 24 81 96 bc ae 5f 07 3c 6d 08 f0 3c
       -0.029543485 -0.018372126 0.008262558 0.029300893
000140 5b 5a 3d 3c 40 b8 03 bd 43 1b 60 3c ea 90 c0 bc
       0.011557187 -0.032158136 0.013678375 -0.0235066
000150 cf da ca bb c9 40 81 3c c7 4a ce 3b fb 9a d7 3c
       -0.006190635 0.015777962 0.0062955352 0.026319018
000160 c4 1c 95 3c ec dc d7 ba de 86 b6 3c f0 7a 97 3b
       0.018202193 -0.0016469038 0.022281107 0.0046228096
000170 ce 90 cb 3c 09 ca 0b bc f6 95 2d 3b 7b a2 76 3b
       0.024849322 -0.008532056 0.0026487089 0.0037633467
000180 0d b3 11 bc f4 c5 10 bc 90 9f 1b bc 07 01 e3 bc
       -0.008892787 -0.008836258 -0.009498492 -0.02771045
000190 ba a0 cd 3b 16 28 a4 bc 17 52 ce 3c 8f cc 07 bc
       0.0062752636 -0.020038646 0.025185628 -0.008288517
0001a0 13 cc e5 3b 55 e0 82 3c a0 2e 0a bd c9 e9 c7 3b
       0.007012853 0.01597611 -0.03373587 0.0061008674
0001b0 a8 44 a2 bc de 61 b3 bc 0d e4 92 bc 77 fe ae bb
       -0.019808128 -0.021897253 -0.017931009 -0.005340393
0001c0 c4 b1 85 3c 7c 0d fd 3c be f0 b8 ba 31 30 06 bd
       0.016320117 0.030890219 -0.0014109833 -0.032760803
0001d0 15 0d 2d bc bb 85 b0 bc 64 52 72 bb 77 b4 15 3b
       -0.010562201 -0.021548143 -0.0036975378 0.002284316
0001e0 e8 89 99 3c bc 70 dc 3b 62 9b 04 3d 1b eb db bc
       0.018742517 0.006727306 0.032374747 -0.026845505
0001f0 c7 61 a7 3c cd 10 02 3d e8 a3 dd 3c 7f 40 ed 3c
       0.020432366 0.031754304 0.027055696 0.028961418
000200 77 76 de bb f3 b8 a6 3c 9e 69 1a bc 68 51 d6 bc
       -0.0067890245 0.020351863 -0.009424595 -0.026161864
000210 0b 9c db bc 80 17 ea 3c 5d 98 ec 3c 70 57 dc 3c
       -0.026807806 0.028575659 0.028881246 0.026897162
000220 68 16 6b bc b6 ef 04 bd 68 0b b9 bc c7 08 34 bb
       -0.014348604 -0.03245517 -0.022588447 -0.0027471052
000230 27 de 71 3b cb b1 e6 3c 44 cc f5 bc 6e 7d c8 3c
       0.0036906095 0.02816095 -0.030004628 0.024473872
000240 21 1e 27 3c 78 c3 fe 3b d9 8a 8a bc d7 cf b7 3c
       0.010200054 0.0077747665 -0.01691191 0.022437973
000250 a1 34 81 bc d0 69 f1 3c 19 26 9a bc ad 0a 28 bc
       -0.015772166 0.0294694 -0.018816995 -0.010256452
000260 43 44 a6 bc 2e 26 a0 bc b6 40 a5 bc bc 2c 2f 3c
       -0.020296222 -0.019549455 -0.020172458 0.010691818
000270 3a 96 8a 3a d1 55 71 3b 23 05 a0 bc dd 5c a9 bc
       0.0010573335 0.0036824832 -0.0195337 -0.020674163
000280 1a e3 10 3c 26 3b a2 bc 12 4d 9d 3c b2 ee f4 3c
       0.008843208 -0.019803595 0.019201789 0.029898975
000290 e4 c5 f9 bc 90 9c 15 3c 6c fc ba 3a 0b 76 ab 3c
       -0.03048987 0.009131566 0.0014265901 0.02093031
0002a0 fa 64 06 bd b9 8f 86 3c 41 db da 3c a2 65 6c 3c
       -0.032811143 0.016425954 0.026715877 0.014428528
0002b0 3f 4e a0 3c a0 90 9e 3c 25 aa 2c bc 93 22 5f bc
       0.01956856 0.019356072 -0.0105386125 -0.013619083
0002c0 af f4 cb bb 58 e0 93 3c f4 1e fc 3b a7 2e fb bc
       -0.006224237 0.018051311 0.0076941196 -0.030661894
0002d0 96 7d 9f 3c bd 43 80 3c f4 aa 9c 3c b0 67 dd 3c
       0.019469064 0.0156573 0.019124486 0.027026981
0002e0 60 05 e8 3b b8 c7 c0 bc ed 2f 90 bc 5e 46 db bc
       0.007080719 -0.023532733 -0.017600978 -0.026766952
0002f0 7f 7f 67 bb 1d ab f1 3c 7b 4b bf bc ff 21 a0 3c
       -0.0035323796 0.029500538 -0.023351422 0.01954746
000300 27 f5 99 3c 29 2b b4 bc 61 fc 7e 3c c3 b7 74 bc
       0.018793656 -0.021993237 0.0155631015 -0.01493639
000310 93 4b c9 3c 5c 1f a7 3c 50 bd d8 3b c3 c5 24 3c
       0.02457217 0.020400696 0.0066143647 0.010056916
000320 0b a3 2f bb 81 89 9b 3c c2 b9 c9 3c 4f 57 8a bc
       -0.0026800062 0.018986465 0.024624709 -0.016887335
000330 82 23 26 3c 34 b5 81 3b ac 0d 01 3d bd ad 1c 39
       0.010140302 0.0039583687 0.03150718 0.00014942042
000340 b4 97 e3 3c 40 70 04 bd 2d eb 61 3c db 42 b8 ba
       0.027782299 -0.032333612 0.01378898 -0.001405801
000350 7e 90 99 3c 66 60 d6 3b 68 0a 02 3d 40 5c 01 bd
       0.018745657 0.0065422533 0.031748205 -0.031582117
000360 f4 58 90 3b 52 27 e6 3c 61 3b e9 3c 0c 61 dc 3c
       0.0044051353 0.028094921 0.028470697 0.026901744
000370 e8 e3 00 bd 5a 8a 1f bc 35 40 f2 bc ca 12 ed bc
       -0.03146735 -0.009737575 -0.029571632 -0.028939623
000380 c6 79 89 3c 33 b7 08 3d 88 ad fb bc bc e0 c2 bc
       0.016781699 0.033377837 -0.030722395 -0.023788802
000390 a2 9b 8c 3c 4e 6c 98 3a 27 a1 e0 bc e2 8b 1a bc
       0.017164055 0.0011628957 -0.027420593 -0.009432765
0003a0 40 02 56 3c 7d 06 bb 3b 05 a7 f5 bc ea fc b0 bc
       0.01306206 0.0057075606 -0.029986868 -0.021604974
0003b0 bd ca fa bc 71 bd 06 bd fe ad b0 3c b4 c1 58 bc
       -0.030614251 -0.03289551 0.021567341 -0.013229776
0003c0 4e e5 c1 3c 32 e2 8c 3b 5a c7 dd bb 07 70 4f 3c
       0.023668911 0.0042994255 -0.0067681493 0.012660987
0003d0 6f 1f a9 bc 8d 47 a2 bc db 5d 9a 3c 4d 34 83 3c
       -0.020644872 -0.019809509 0.018843582 0.01601615
0003e0 2f b8 b0 3b 9a a4 96 3c 17 1e fa 3c 1b 1c 5c bc
       0.00539305 0.018389035 0.030531926 -0.013434435
0003f0 04 fe cd 3c 8d 54 ac 3c dc 75 dd 3c 57 e1 fc 3c
       0.025145538 0.02103641 0.027033739 0.03086917

i2h.bias f4 [128]
000000 ec 67 5c bc f5 12 8f 3c 06 5c 75 3c 20 c9 71 bb
       -0.013452511 0.017465094 0.014975553 -0.0036893561
000010 d2 8f cc 3a ce 1a d2 bc be 1f e4 bb e2 d4 32 3b
       0.0015606827 -0.025647547 -0.006961792 0.0027287533
000020 1d 81 4a 3b 11 6f 5d 3c 91 05 d1 bc 5a 75 c0 3b
       0.0030899711 0.01351525 -0.02551535 0.0058733644
000030 10 f0 82 bc 9a 9e 9a 3c 60 bf 99 bc 49 a7 f2 bc
       -0.015983611 0.018874455 -0.018768013 -0.029620783
000040 64 67 ef bb e7 bc 91 bc 9d e9 e4 bc fd ec 4c 3b
       -0.0073060263 -0.017790271 -0.027943427 0.0031269186
000050 ef a8 d1 ba a3 ef a0 3b b8 17 cd 3c ba 3b ac 3c
       -0.0015995781 0.0049113794 0.025035724 0.021024574
000060 3d 64 2a 37 75 12 6f bb 66 da 9c bc c5 26 e2 bc
       1.0156128e-05 -0.0036479507 -0.01914711 -0.027606377
000070 89 d7 0f 3c 25 ae 5b bc cf 0d 0b bd 02 c8 f2 3b
       0.008779415 -0.0134082185 -0.033948716 0.0074090967
000080 5c 5b bf bb 88 82 ca 3c bb 77 c4 3c cb fd fb bb
       -0.0058397483 0.024720445 0.023982873 -0.0076901666
000090 6e b6 89 bb bc a5 dd 3b 82 02 a2 3c c4 6d 96 bc
       -0.0042026555 0.006764142 0.019776586 -0.018362887
0000a0 a7 96 06 3d a2 7f 59 bb cb 8b 80 bb 19 51 47 bc
       0.032858517 -0.0033187647 -0.0039229146 -0.012165331
0000b0 6d 90 82 3c 40 ff e0 3a 55 0e 5c bc ee 08 c8 bb
       0.015938008 0.0017165914 -0.013431151 -0.00610458
0000c0 9c 56 cb bc aa 80 e7 3a 7f 43 ee bc 82 6a e2 bc
       -0.024821572 0.0017662246 -0.029084919 -0.027638678
0000d0 6d 14 db 3c 8f c9 76 3c 76 a3 3e bc d1 33 a3 3c
       0.026743138 0.015062704 -0.011635652 0.019922169
0000e0 6c 00 8b 3c eb e6 e9 bb 44 e7 9d bb 5d ac 4f 3c
       0.016967975 -0.0071381233 -0.004818829 0.012675372
0000f0 68 fe 1a 3c a9 60 bd 3c 32 4d 49 3c 24 c5 64 bc
       0.009460069 0.02311738 0.012286471 -0.013963018
000100 e8 1e aa 3b 23 d9 cd bc c2 37 81 bc 8f 86 44 bc
       0.0051916726 -0.025127953 -0.015773658 -0.011994972
000110 2d 01 e7 bc 3b 97 02 bd c0 60 8e 3c 4f c6 5a 3c
       -0.028198803 -0.031882506 0.017380118 0.0133529445
000120 d0 33 69 bc 56 f7 de 3b 01 b2 cf 3c f2 c4 01 bd
       -0.0142335445 0.006804387 0.025353434 -0.031681962
000130 6c a0 5e bc ed 65 d6 3c 0a 90 b4 bb f0 3e b7 bc
       -0.013588052 0.026171649 -0.005510335 -0.022368878
000140 a0 3e 8e bb 1b 09 fa bc ac 6c e6 3c f9 de 83 bc
       -0.0043409616 -0.03052192 0.02812799 -0.016097533
000150 f9 a2 ac bc 5f 76 5c 3b e6 ed d8 bb 37 d8 e8 3b
       -0.021073805 0.003363989 -0.0066201566 0.007105853
000160 44 7d 92 bc ec 73 a0 3c 20 41 c4 3c 2a 03 28 3c
       -0.017881997 0.019586526 0.023956835 0.010254661
000170 45 a6 ab bc bc 64 d6 bc 68 3d f6 bc 9c df a4 bc
       -0.020953307 -0.02617108 -0.030058578 -0.020126157
000180 cf fc 0a bb bd 94 c9 bc 50 86 59 3c 8e b4 5d bc
       -0.0021207815 -0.024607057 0.0132766515 -0.013531817
000190 fe bf 09 3c 31 a5 f9 3a 15 a0 ce 3c 22 d2 a1 39
       0.008407591 0.0019046423 0.025222817 0.00030864874
0001a0 28 f3 ff bc 94 b1 b3 3c a6 58 c4 3c 56 2d 8f bb
       -0.031243876 0.021935262 0.023968052 -0.004369418
0001b0 30 a2 f2 bc c0 01 63 3c 58 31 e2 3c 71 f9 53 bc
       -0.029618353 0.013855398 0.02761142 -0.012937889
0001c0 0f 85 e6 bc 54 ea 90 3c 6e 18 fc bc 07 92 d9 bc
       -0.02813962 0.017689861 -0.030773368 -0.02655889
0001d0 ed 8f 87 bc 5d 04 c8 3b 8e 2e ed b9 30 de cb 3c
       -0.016548121 0.006104036 -0.00045238849 0.02488622
0001e0 7b 57 e7 3c 4e 45 01 3d 74 97 37 bc 5e 4d aa 3c
       0.028239956 0.031560235 -0.011205543 0.020788845
0001f0 70 f9 2f 3c 10 b0 b6 bb c1 e2 03 bd 2b 13 cf 3c
       0.010740623 -0.0055751875 -0.03219867 0.025277695

i2o.weight f4 [2, 896]
000000 29 68 33 bc ad 23 d4 3c 97 97 c1 bc 47 70 8d 3d
       -0.010950127 0.025895918 -0.023631854 0.06906181
000010 39 38 a0 3b bc 71 9a bc 83 f5 e2 3c 9e d1 27 3c
       0.0048895148 -0.01885306 0.02770496 0.010242848
000020 f2 33 61 bc 4f ed a8 bc e1 11 3c bc 0b f3 9f 3d
       -0.013745295 -0.02062097 -0.011478872 0.07810029
000030 c1 05 29 bc 71 cc 9c 3d 42 ef 9b bb 3d af 93 3c
       -0.010316313 0.076561816 -0.0047587464 0.018027896
000040 f2 a1 69 bd a0 f6 95 3b 2a 7c 23 3d 3c 08 8d bd
       -0.05703921 0.004576519 0.039913334 -0.06886336
000050 c4 d7 5a 3d 79 97 79 3d ec f2 5d bd 8b a3 78 bb
       0.053428426 0.06093547 -0.054186746 -0.0037939276
000060 2b 62 af 3c c5 cc 0d bd cd ba 5f bd a4 54 a4 3d
       0.021409115 -0.03461911 -0.054621506 0.080239564
000070 16 57 48 3c 07 1b 27 bc 96 76 f2 3b 3c f2 02 bd
       0.012227794 -0.010199315 0.0073993905 -0.031969294
000080 3e 30 53 3d 9d ec 17 bd 34 da 97 3b ce 58 4c bd
       0.05155968 -0.037090886 0.004634166 -0.04988938
000090 88 aa 88 bc 5e 69 c7 bc 03 e4 1c bc 01 39 e4 3b
       -0.016682878 -0.024342235 -0.009575847 0.006964803
0000a0 3b c4 e0 bc 0a 88 3f bd 61 af 11 3c d0 3a a6 3d
       -0.02743732 -0.046760596 0.008891911 0.08116686
0000b0 de ef 17 bd 8f a8 c1 bc 5a 12 83 bc e0 4f 40 3d
       -0.03709399 -0.023639945 -0.015999962 0.046951175
0000c0 37 17 95 3b 93 e0 a1 3d 6a 94 ea 3c fb c4 92 3d
       0.0045498866 0.07904162 0.028635222 0.07166477
0000d0 58 3d 99 3c 0b 58 98 3d e2 d1 95 3d 87 c9 a7 bc
       0.018706009 0.07438668 0.073154226 -0.020481838
0000e0 c0 6c e0 3c a4 aa cc ba 93 f5 d7 bc 8b df a9 3d
       0.027395606 -0.001561482 -0.026362216 0.082945906
0000f0 e7 a2 a3 bd 41 78 1c bc a1 60 12 3d 7b 9b 44 3d
       -0.079900555 -0.009550155 0.035736684 0.04799984
000100 de 42 50 3b 96 d3 f1 bd b1 07 00 bd c6 51 a1 bc
       0.0031778137 -0.11807935 -0.031257335 -0.019692313
000110 a1 56 2f 3d 1d 39 83 3d 4f 7f a9 3c 36 8c 42 3d
       0.042807225 0.06407378 0.020690588 0.047496997
000120 ca 95 a9 3c a1 30 25 3d 7a 84 a5 3c db 1d 06 3d
       0.020701308 0.04032958 0.020204771 0.032743316
000130 15 8a e5 3c 88 59 63 3b 4f 06 da 3c 2c 94 a9 3c
       0.028019944 0.0034690816 0.026614336 0.020700537
000140 0b a6 2b 3d e7 b4 4f 3b fc e1 5c bd 84 24 42 bc
       0.041906398 0.003169352 -0.053926453 -0.011849526
000150 ee 26 9d bd 1b d5 73 bd 62 49 f1 3b d6 4a a9 3d
       -0.07673441 -0.059529405 0.0073634842 0.08266227
000160 bb b7 53 3b 77 2a aa bc 50 a0 16 bd 87 a4 04 3d
       0.0032305557 -0.020772202 -0.03677398 0.032383468
000170 24 ee 2c bc b8 10 c7 bd d9 1b a3 3c 72 82 d7 bc
       -0.010554824 -0.09719986 0.01991074 -0.026307318
000180 e5 00 32 3b 35 8a 99 3c f7 70 a3 bc 42 67 3e 3d
       0.0027161178 0.01874266 -0.019951327 0.046485193
000190 86 d0 94 3c 45 6e 4d 3d 71 2f 2d 3d 48 47 c8 3c
       0.018165838 0.05015399 0.04228157 0.024448052
0001a0 8f 99 c3 3c 6d 97 af 38 43 39 b4 bc fe dc a7 bc
       0.023876933 8.3728555e-05 -0.02199996 -0.02049112
0001b0 d6 e9 4d 3d ce 2c 9d bc ef 98 e3 bc 84 96 76 bc
       0.05027183 -0.019186404 -0.027782885 -0.015050534
0001c0 81 58 84 3d a6 b6 05 3d ca b6 72 3d 36 7d 03 bd
       0.06462193 0.03264489 0.059256352 -0.032101832
0001d0 06 c5 94 3b 96 f7 25 3d 80 4b 00 3d 4f 1e 6a 3c
       0.0045400886 0.04051932 0.031322002 0.014289453
0001e0 03 a7 51 bd 26 97 ea 3c bf f1 0b 3d e7 2d 57 3d
       -0.051184665 0.028636526 0.034166094 0.05253401
0001f0 d8 27 d2 bc bb 81 b7 bc 62 5e 3d bb f1 11 97 bc
       -0.025653765 -0.022400727 -0.0028895368 -0.018441172
000200 65 05 7d 3d 9d 8a 83 3c 88 ea bc bc a4 42 dc bc
       0.061772723 0.016057307 -0.023061052 -0.026887245
000210 b5 d2 31 bd 5d 78 12 3d 0d ab b3 3c 92 96 f6 bb
       -0.043413837 0.03575932 0.02193215 -0.0075252736
000220 bc 4b a0 3d f5 82 22 bd 19 4b 1d 3d 05 92 1a bd
       0.07826945 -0.03967567 0.038401697 -0.03773691
000230 39 4c 44 3c fb 6a 7e bc b4 e6 88 3d df 44 a3 bb
       0.0119810635 -0.015528436 0.06684628 -0.0049825753
000240 d2 d6 f2 bc 49 d0 c7 bb 0f 15 e7 bc 8b 79 85 3d
       -0.02964345 -0.0060978276 -0.028208284 0.06517323
000250 91 bd c5 bc 43 67 b8 3c 91 e4 07 bc af 6b 9f 3c
       -0.024138244 0.022510177 -0.008294241 0.019460527
000260 7c df 21 bd 58 6f 0b 3d d8 da 57 bc ed e3 31 bc
       -0.039519772 0.034041733 -0.013174735 -0.010857564
000270 92 d4 05 3d df d6 7c 3d 7a cf 68 3c 00 e9 26 bd
       0.032673426 0.061728355 0.0142096225 -0.04074955
000280 55 f9 da bb 8b 58 32 3d b6 20 9b bd 20 89 08 3d
       -0.0066825547 0.043541472 -0.075745985 0.033333898
000290 39 6b ac bd 2d 5a e6 3d 61 4c 88 3c 7e 64 be b9
       -0.084188886 0.112476684 0.016637983 -0.00036314497
0002a0 b3 1f 1d bd 0e e7 4b 3c 71 ca 40 bc b8 08 ab bd
       -0.03836031 0.012445224 -0.011767016 -0.08351272
0002b0 9a fc 7f bc a7 ef 1b bd 7e a0 40 bc d8 69 8d bd
       -0.01562419 -0.038070347 -0.011757014 -0.06904954
0002c0 a0 b4 e4 bc 63 ef 7c bc af 16 d1 3b c1 4c 47 bd
       -0.02791816 -0.015437934 0.006380878 -0.048657183
0002d0 b9 5b 74 bc ba ac 3e 3d 86 ba 14 3d 8e 10 2a bd
       -0.0149144465 0.046551444 0.036310695 -0.041519694
0002e0 b1 c1 4d bc 9b c3 06 3c 76 61 18 bd 94 0d 13 bd
       -0.012558387 0.008225347 -0.03720232 -0.03590162
0002f0 04 4d 09 3d f8 35 17 3d 10 f3 7f 3d ff b0 d5 bc
       0.033520713 0.036916703 0.06248766 -0.026085375
000300 29 b0 9c bc d8 5f 18 3c 18 f8 b9 3c 34 2d b2 3c
       -0.019126968 0.009300195 0.022701308 0.02175007
000310 94 4e 05 3d 5a 96 f2 bc 15 c8 1f 39 53 36 98 3c
       0.03254564 -0.029612709 0.00015237958 0.018580591
000320 84 6d 6f bd ff 41 e0 3c 38 4d 8f bc 20 a1 d6 3c
       -0.05845405 0.02737522 -0.017492875 0.026199877
000330 22 c6 03 bd 55 13 95 3d 5d 38 3e bc 06 77 96 39
       -0.032171376 0.07279078 -0.011610118 0.0002869891
000340 00 96 b3 bd a3 a7 33 3c 74 1b f8 bd b4 62 83 bb
       -0.087688446 0.010965261 -0.12114611 -0.004009569
000350 00 33 f6 bc d3 c8 91 3c 7a dd a1 bc b0 90 3c 3d
       -0.030053616 0.017795956 -0.019758929 0.046036422
000360 a5 32 c4 bd 59 58 3a 3d a1 21 46 3c 11 0e e6 ba
       -0.09579972 0.04549441 0.012092979 -0.00175518
000370 09 6c 37 3d 76 60 13 bd bc 3b 71 bd f2 45 db bb
       0.044780765 -0.035980664 -0.058894858 -0.0066916877
000380 f2 fc 57 3d e1 e2 99 bd 81 4f a5 3c ae 2a 4e bd
       0.05273146 -0.07513977 0.020179512 -0.05033367
000390 b0 80 59 bd 49 45 68 3c 0b 12 39 bd b6 8f 9c 3b
       -0.05310124 0.014176675 -0.045183223 0.004777874
0003a0 9e a1 6a 3c c9 74 9c 3d ff e1 6a bd 82 55 77 bd
       0.014320759 0.076394625 -0.057344433 -0.06038428
0003b0 c6 5a 57 bc 85 74 34 bd a9 d1 25 3b b8 7d 3f bd
       -0.013144201 -0.044056434 0.002530197 -0.046750754
0003c0 4d 89 59 3d e7 94 41 3c ad 59 88 bb d7 05 b0 ba
       0.053109456 0.011815286 -0.004161081 -0.0013429475
0003d0 c4 18 21 bc 5c 81 97 3c 68 07 88 bc 8c 3d 88 3d
       -0.009832565 0.0184943 -0.016605094 0.06652364
0003e0 62 22 65 bd d6 49 31 3c 22 84 4e bd 6f a7 cb 3c
       -0.055940993 0.0108208265 -0.05041898 0.024860112
0003f0 47 dd 89 3d e2 02 86 bd 7c 79 9e bc c9 79 54 bc
       0.067316584 -0.065435186 -0.019345038 -0.012968489

i2o.bias f4 [2]
000000 99 d5 74 bc 2c b3 b3 bc
       -0.014943504 -0.021936022
